assets/symbol_grounder_weights.pt (torch, 364504 bytes, 10 tensors)

0.weight f4 [16, 3, 3, 3]
00000000: f11f 2fbe 6f42 45bd b765 ddbd ab5e 28be
00000010: 07c6 363d 05f0 f6bd e720 c03d 22cc f83d
00000020: 13e6 82bd c388 12be a2d1 823d 6204 8fbd
00000030: c9fb 933d 0eaa 033e 87ea e5bd 60cc 3b3e
00000040: e682 ab3d f4ae e2bd 3b62 4c3e 6bc5 023e
00000050: ac2b 81bd d682 04be 43bf 0dbd b49f f5bd
00000060: 1abc a73d 3487 bb3b 85a7 b33c 8376 073e
00000070: e408 03be 0337 153e 37de 343d 0c98 3dbd
00000080: 45ba eebc 0b69 dabd 6472 d9bd 4ee1 f6bd
00000090: 8bb7 2e3e 49d9 903d 5de9 c9bd 2f67 fcbc
000000a0: cf2f efbd d514 1f3d a3f2 7c3d ae08 c3bd
000000b0: e165 733d 4576 f0bd da25 04be f457 0ebe
000000c0: 8417 5bbd 9de6 d3bd 498f 3cbe c269 24be
000000d0: b4ea 9dbd 266e 74bc 6f49 c9bc 0279 023e
000000e0: 140a 413e b456 84bd 7dc5 033e cafa 383d
000000f0: 54d6 8f3d 7dec 0ebd cd95 413e fdf1 d43c
00000100: 8202 1f3d 2beb 203e ac48 093d 1a43 05bb
00000110: cad8 423d 2cb0 013e 610a 3d3d 78b6 24be
00000120: 8047 1abe 720d 213e f022 b43d 5477 153e
00000130: dd1f b1bc 26a3 a4bc 45b0 bb3c 5745 d8bd
00000140: 4049 243e b21e 223c 0cbe 3fbd 88bd 6c3d
00000150: 4bc5 863d 88ef 483e 9b76 7a3c 3303 a1bd
00000160: 544d 0f3e f7d3 b43d c715 febd 449d e4bd
00000170: f4d1 16bc 97ac 423e 3c7e febd e7b2 fbbd
00000180: fc7e 363d 4890 3a3e 5270 02be 0a92 c03d
00000190: a9b5 193e b81c 453e 62c1 8abd 6b12 503e
000001a0: 929f d7bd ee46 0a3e f948 07be f999 633d
000001b0: cd9b 283e b64b dd3d e5d9 96bc cf8c 093e
000001c0: 22aa 69bd d74f 0d3c 002a 2bbb 3187 433e
000001d0: fd1a f8bd f3d2 4a3e bf11 11be 35fb 1f3e
000001e0: fb12 363e a3a6 333c 24c7 383e 56c1 c03d
000001f0: dc72 183e 5de8 233e d6fe 97bd 7b5b edbc
00000200: bfa0 053d e294 aa3d d9af 753d d162 283e
00000210: 4a65 543e 65ea 283d c389 083e 37cb 4b3e
00000220: 103d c73d cf5d 0ebe d150 cbbd b7c4 98bd
00000230: ce12 f73d c637 153e ca90 94bd 3abc dabd
00000240: 02b5 55bd 0f38 d6bd 2aaf 4d3e 7960 1fbe
00000250: 5382 c33d 2167 0e3e f9fb fcbd 7554 8c3d
00000260: 0450 483e 117d 09be f01b 4f3e ccb4 95bd
00000270: dc9e 1dbd 4d85 0e3e a540 073e aac9 2e3e
00000280: 34f9 e3bd fee1 2fbe 0fc9 d63d d21b 303e
00000290: 9763 18be 9dbc 293d 6818 06be a1c2 1b3d
000002a0: 4efc 1bbe eb02 343e 5a61 8bbd 6ca6 3a3e
000002b0: ba12 7b3d cd61 f3bd 211f 033b 49aa 8ebd
000002c0: 634f 02be 42a5 6d3d c92a 11be 2ef8 123e
000002d0: 5c77 233e bae0 c7bd 3487 f9bd 1b81 8ebc
000002e0: 0a75 ffbd 72be 1e3d 21da 3fbb e788 9abd
000002f0: 0385 923d 81ec 94bc 8f77 ef3d 3391 f5bd
00000300: 28cf 1b3e cb63 453e f865 96bd 7489 163d
00000310: 2ab5 00be 90fd 8d3d 81ce cbbd c9ea 453e
00000320: 82bd db3d 36f9 503e 8c60 12be d69b 3ebc
00000330: 5d54 523e baea ae3d bb28 3c3a 54a4 153e
00000340: d804 f63c 30f7 13be 8cea a4bd 72b3 10be
00000350: 0c78 ce3d 37e5 713d f467 943c d2f9 17be
00000360: 89e6 1f3e 13e0 1e3d 00ff 75bd 91a6 daba
00000370: e799 013d fa0d 923d b81c 1bbe 1541 efbc
00000380: 9dd9 26be 98cf ecbd e315 ae3d 249f a0bd
00000390: b246 253d dee2 2a3d f20b a03d e4c6 a0bd
000003a0: afc0 373e 1aa9 833c fed0 9bbd 67fd 73bd
000003b0: 51a4 31be 0395 0c3a 5751 0f3d ca01 a23b
000003c0: 3666 b8bd deb3 2ebe 46d5 33be b7af 373e
000003d0: f417 70bd a4d0 4a3d 654e 843d d54a ccbd
000003e0: 5a0d f93d 8bab dfbd ba1c 023e 1eac 1e3e
000003f0: 63e9 493d 41f9 853c 2650 0abe 10a9 0f3c
-0.17102028 -0.04815906 -0.10810416 -0.16442363 0.044622447 -0.12057499 0.093812756 0.1214831
-0.063915394 -0.14309983 0.063876405 -0.06983258 0.072257586 0.1285784 -0.11226373 0.18339682
0.08374576 -0.11068526 0.19959347 0.12770621 -0.06307158 -0.12940535 -0.03460623 -0.119933516
0.081901744 0.0057229046 0.021930465 0.13228802 -0.1279636 0.14571767 0.044157233 -0.04628758
-0.029141555 -0.106645666 -0.106175214 -0.12054692 0.17062204 0.07072694 -0.09858964 -0.03081092
-0.11679041 0.038838226 0.061754834 -0.0952314 0.05942333 -0.11741308 -0.12905064 -0.13900739
-0.053489223 -0.1034672 -0.18414034 -0.16055968 -0.07710782 -0.01491884 -0.024571149 0.12741473
0.18851501 -0.0646185 0.12868305 0.045161046 0.07023302 -0.0348935 0.189048 0.025994295
0.03882075 0.1571471 0.03351657 -0.0020334185 0.047570027 0.1266486 0.046152476 -0.16085231
-0.15066338 0.15727785 0.08795726 0.14596301 -0.021621639 -0.020097326 0.0229112 -0.105601005
0.16043568 0.009895014 -0.046812102 0.05779794 0.065805994 0.19622624 0.015287067 -0.07861938
0.13994342 0.088294916 -0.124064974 -0.111628085 -0.00920533 0.1901115 -0.12426421 -0.12289982
0.044554695 0.18219101 -0.1273816 0.09402855 0.15010704 0.19249237 -0.06775166 0.20319526
-0.105284825 0.1350362 -0.1321143 0.05556676 0.16465683 0.10805456 -0.018414447 0.1343262
-0.057047017 0.008624992 -0.0026117563 0.1909454 -0.121145226 0.19807033 -0.14166926 0.15623172
0.17780678 0.010965022 0.18044716 0.09411876 0.14887565 0.16006608 -0.07421653 -0.028974285
0.032624003 0.083291784 0.059982155 0.16443945 0.20741764 0.04123916 0.13333802 0.19901739
0.097284436 -0.13902973 -0.09927524 -0.074593954 0.120641336 0.14572057 -0.07254179 -0.106804326
-0.052174576 -0.10459911 0.20086351 -0.15564145 0.09546342 0.13906528 -0.123527475 0.068520464
0.19561774 -0.13426615 0.20225501 -0.07309875 -0.03848158 0.13918038 0.13208254 0.17069116
-0.11131516 -0.17176053 0.10487568 0.17198113 -0.1488174 0.04143964 -0.13095248 0.03802741
-0.15232965 0.17579238 -0.06805678 0.18227547 0.061297156 -0.118838884 0.0020007568 -0.06966073
-0.12725596 0.05801893 -0.14176477 0.14352486 0.159635 -0.0975966 -0.12183991 -0.017395547
-0.12473495 0.03875584 -0.0029274302 -0.07545643 0.07154276 -0.01817918 0.11692726 -0.11990585
0.15215743 0.19276349 -0.07343668 0.03675218 -0.12569109 0.06933129 -0.09951497 0.19327845
0.10729505 0.20407566 -0.14294642 -0.011633834 0.20539995 0.08540864 0.00071777 0.14613467
0.030031607 -0.14449763 -0.08052549 -0.14130953 0.10081491 0.059056487 0.018115975 -0.14841393
0.15615286 0.038787913 -0.06005764 -0.0016681721 0.031640913 0.07131572 -0.15147674 -0.029205838
-0.1629395 -0.11563033 0.08500268 -0.07842854 0.040350623 0.041720264 0.078147784 -0.078504354
0.17944597 0.016071845 -0.076082215 -0.059567835 -0.17347838 0.00053627806 0.03498968 0.004944061
-0.0900387 -0.17060801 -0.17561826 0.17938124 -0.058616593 0.04951538 0.06460265 -0.099752106
0.1216075 -0.10921391 0.12706271 0.15495345 0.04929484 0.016354205 -0.13507137 0.008768335

0.bias f4 [16]
00000000: 50ef d6bd 6227 2bbe 7656 09bd b172 3a3e
00000010: 1a29 03be ec74 0fbe d3d4 b5bd ceab 1a3e
00000020: d6c8 c63d 83b8 e43c 0f4a 053d 9638 13bd
00000030: b9d5 dfbd 337a b43d 3de3 ed3d 45ec 943c
-0.10494864 -0.16714242 -0.03352972 0.18207814 -0.12808648 -0.14009446 -0.088784836 0.15104601
0.09706275 0.027920013 0.03254133 -0.035942636 -0.10929436 0.0881237 0.11615608 0.018179068

3.weight f4 [32, 16, 3, 3]
00000000: 44bd 783d 279f 0b3d b851 353d ac0a 71bb
00000010: 3682 883b 5851 d0bc ea6d 3f3c 4b77 723d
00000020: 6151 b73c 7683 833d 665f b03c a6a5 e1bc
00000030: 6be5 cc3c a48d 8cbd 3622 4d3d 6afe f3bc
00000040: a633 863d 67ee bfbc f975 11bd b6e7 01ba
00000050: 0cf5 8b3d d3de 43bd b1dc 093d 5931 dabc
00000060: 6b27 793d 1fd9 533d fed4 923d fba1 a23c
00000070: f1df 52bd 117f 29bd 14cb 67bd 43d7 053c
00000080: ee2c 41bd a47d 95bd 6bb5 abbd 78fe 913d
00000090: 794c c23d ee7d 983c 0d10 fe3c 9e98 983d
000000a0: 6522 ac3d 27fd dabc e831 31ba 3eca 5e3c
000000b0: f2aa 1dbd f49a 84bd e824 46bd 73e0 c9bc
000000c0: 873f 873d deb9 d8bb 87bf 893d bb35 89bd
000000d0: 4a49 5abc 20f4 933d d52a 953d 8b2e a6bc
000000e0: eceb 873d 4660 98bd a32b b33d 444c 363d
000000f0: 53c0 3ebd 893f 5e3c 5993 f73c 2ce4 bb3d
00000100: 48f7 133c ad01 9ebd 5dfc f5bc 7293 983d
00000110: 8377 2cbd 85a9 9fbd 9006 63bd 8a57 483d
00000120: f626 2c3d 019a 2fbd 0dd9 83bd 18cb 8bbb
00000130: b74a 1ebc 192c bfbd d2a8 ed3c 8833 16bd
00000140: 99dd 73bd c2f5 87bc c709 9b3d c794 37bd
00000150: 61fd 443d aa21 853d ca84 973d e660 5e3d
00000160: b5c6 293d 1033 94bc fd6c 65bc 4407 59bd
00000170: 751a 8d3d db82 543c c4ec af3d 1553 aa3d
00000180: b28e 39bd 620d 163c 3cc7 5a3b d4e2 85b9
00000190: f0bb ae3d dda0 ee3b 0232 873c 61ed 70bd
000001a0: 9fc3 38bd 41c2 f53c 2043 64bc 3007 8a3d
000001b0: a766 82bb 8e3f bb3d 1d2f 1fbb 7e43 0ebd
000001c0: c0ee 373a adbc 9c3d d9da 35bd 0af0 853c
000001d0: 1177 bcbc 4aeb 0ebd 8dfb 503d 999d 1a3d
000001e0: cb70 8bbc da81 003d dad0 85bd 8906 d7bc
000001f0: 8e90 0b3d b221 a13d 4c93 21bc 4fd7 953c
00000200: 0754 9abd b38a 4ebd 1656 8b3d 69cc a1bd
00000210: ca3e 8c3d bd15 6a3c 09da c2bc ba2a e4bc
00000220: 6c77 08bd a10c ac3d 0e4b 28bd 9d9f 323d
00000230: 88ab 63bc 14ce b93c 5824 ae3d 3cd3 4abd
00000240: 19d6 48bd 00d5 6e3d fc0a fabc fcd5 973c
00000250: 956f 93bd bdd9 4cbd 9935 353c 5634 9fbd
00000260: e28e c63c d12e 693b dcf5 0e3d 4b98 04bd
00000270: 5662 3b3c eb71 98bc c0a9 753d 2e2d 5e3d
00000280: e022 88bd e271 553d 873b 47bd 66c9 383d
00000290: 702c 203d 23d3 4abc e2d6 3e3d 6316 dabc
000002a0: fa41 b43d 50d0 5f3d a037 bebc 68e8 9f3d
000002b0: 0525 f03c e8ca 213c 6031 963d c552 1e3d
000002c0: 1ec4 813d ae3f 4a3c 3424 86bd 6f36 bc3c
000002d0: c3ae bc3d b02b bb3d 61b7 de3b ac3b 2a3c
000002e0: 739d 573d 6d1b 943d 5e4a 74bd d64c 22bd
000002f0: 99f1 a83d b13c 1b3c 95e3 4bbd 8258 7ebd
00000300: dc40 6b3d 535c 4b3d 1f6e 0bbb 2f2e 813c
00000310: d5d5 27bd 4ade a0bb 853e 5abd 3dfc 97bd
00000320: 4a89 2a3d 3537 243d cb2a 483d 5787 c53c
00000330: 7b01 0d3c 238b 8bbd fc7b c53b e86d 063d
00000340: e6fe bd3d ae93 903d 2006 bc3d f5e2 183d
00000350: f104 45bd 9a88 aa3d 4f55 9b3d 3af9 7739
00000360: 3953 083a 160c 253d 7957 c9bd 1940 2abd
00000370: 9b48 623c 8fa5 94bc 52fd 25bc c132 2739
00000380: 5801 8cbc c84a 583d 8f09 af3d b1ad 683d
00000390: 84cd 54bd 131b a23d 5ea2 153d d8a4 6abd
000003a0: ba03 13bc 434f 383d e622 94bc 23ab 2c3d
000003b0: e23e b2bc f35c 77bd 8a98 56bd 6665 96bc
000003c0: 830d 613c f2ac 373d 1efd 8cbc 48cc 52bd
000003d0: 4978 6ebd edd4 e93b 1925 623d c3fb 8ebc
000003e0: a153 933d 7536 d0bc f030 413d b503 2ebd
000003f0: a8f7 553d 29df 743d a429 75bd c19b 3a3d
0.060727373 0.034087326 0.044267386 -0.0036780043 0.004165913 -0.025429413 0.01168392 0.059195798
0.022377672 0.064215586 0.021529865 -0.027544808 0.025011739 -0.06862953 0.050081454 -0.0297844
0.0655282 -0.023429109 -0.035512898 -0.0004955487 0.06833848 -0.047819924 0.033657733 -0.026634859
0.060828608 0.051720735 0.07169531 0.019852629 -0.0514831 -0.041380946 -0.056590155 0.008168998
-0.04716199 -0.07299355 -0.08384212 0.07128614 0.09487242 0.018614735 0.031013513 0.074509844
0.08404998 -0.02673204 -0.0006759451 0.013598023 -0.038493104 -0.064748675 -0.04837504 -0.024643159
0.06603914 -0.006613954 0.06725984 -0.066997014 -0.013323138 0.072242975 0.0728356 -0.020285865
0.066367954 -0.07440238 0.087485574 0.044506326 -0.046570133 0.013564953 0.030221628 0.0917438
0.009031124 -0.077151634 -0.030027563 0.07449998 -0.042106163 -0.07796005 -0.05542618 0.04891161
0.042029344 -0.04287148 -0.064378835 -0.004266154 -0.009661368 -0.09334583 0.029011164 -0.036670238
-0.059537504 -0.016596679 0.07570224 -0.04481962 0.048093203 0.065005615 0.073983744 0.05429163
0.041449267 -0.018090755 -0.014003036 -0.052985445 0.06889812 0.0129706515 0.08590081 0.08316628
-0.0453021 0.009158464 0.0033382913 -0.00025536737 0.0853194 0.00728236 0.016503338 -0.058820132
-0.045108434 0.029999854 -0.0139320195 0.06739652 -0.0039795223 0.091429815 -0.0024289556 -0.034732334
0.00070164725 0.076531745 -0.044398163 0.016349811 -0.023005994 -0.034892358 0.051021148 0.037747953
-0.017021557 0.031373836 -0.06533976 -0.026248233 0.034073405 0.07867755 -0.0098617785 0.018291144
-0.07535558 -0.050425243 0.06803529 -0.07900316 0.068479136 0.014287409 -0.023785608 -0.027852405
-0.033317015 0.08400846 -0.041087203 0.04360925 -0.013895877 0.022681274 0.08503026 -0.049517855
-0.049032304 0.0583086 -0.030522816 0.018534653 -0.07199017 -0.05001234 0.011060142 -0.07773654
0.024238054 0.0035580883 0.03490244 -0.0323718 0.011437019 -0.018609008 0.05997634 0.054242305
-0.06647277 0.05211056 -0.048640754 0.045113944 0.03910488 -0.0123794405 0.046591647 -0.026622003
0.088016465 0.05464202 -0.023219883 0.07808 0.029314527 0.009875037 0.07333636 0.038653154
0.063362345 0.012344284 -0.06549874 0.022975175 0.09213021 0.09139192 0.006796763 0.010390203
0.05264039 0.072317936 -0.059641235 -0.039624058 0.08249206 0.009474919 -0.049777586 -0.062096126
0.0574349 0.049648594 -0.0021275354 0.015769092 -0.04097541 -0.0049093114 -0.05328228 -0.074211575
0.041634835 0.040091712 0.048868936 0.024112387 0.00860631 -0.068136476 0.006026743 0.03281966
0.09277134 0.07059418 0.09180856 0.037325818 -0.048100416 0.08326836 0.07584631 0.000236486
0.00052003894 0.04029473 -0.09831137 -0.041565035 0.013811256 -0.01814535 -0.010131197 0.00015945268
-0.017090484 0.052805692 0.08546745 0.05680627 -0.051953807 0.0791532 0.0365318 -0.057286114
-0.008973056 0.044997465 -0.018083047 0.042155396 -0.0217585 -0.060391378 -0.052391566 -0.018358897
0.013736132 0.044842668 -0.01721054 -0.05146435 -0.05822018 0.0071359784 0.05521116 -0.017454034
0.07193685 -0.025416592 0.04716581 -0.042484004 0.052238137 0.059783135 -0.059854165 0.045558695

3.bias f4 [32]
00000000: 8353 99bd 50c0 6f3c 9385 94bd 45c1 7b3c
00000010: 6933 083c a9af b33d 95d4 dabc ace4 0f3d
00000020: eeb1 bd3c 14c4 b9bc a9de 88bd 1cbc 823d
00000030: 0619 6abd 6ba2 d73c 87a8 4bbd b49d 48bd
00000040: 01ce a9ba 7d9a 6ebd 01ca 853c bbeb 943d
00000050: 7fb0 4c3d 3286 21bd e704 83bd 8f17 3b3d
00000060: c3d5 39bd 472b 8f3d b5ae 773d fb8a e83c
00000070: fd44 e0bc f8e9 383d 6b9b b83c d287 a3bd
-0.07486632 0.014633253 -0.0725204 0.015365903 0.008313038 0.08773739 -0.026712695 0.035130188
0.023156133 -0.022676505 -0.06683094 0.06383535 -0.05715277 0.026322564 -0.049721267 -0.048978522
-0.0012955071 -0.0582528 0.016331675 0.072715245 0.049973007 -0.03943462 -0.063974194 0.045676764
-0.045369875 0.069906764 0.060469348 0.028386584 -0.027376646 0.045145005 0.022535047 -0.0798489

6.weight f4 [16, 32, 3, 3]
00000000: 3274 f3bc aeed 293c f5f7 d9bb 85de 74bb
00000010: 9a76 03bc 0dd0 88bc 58a9 8c3d 9873 853c
00000020: f07d c6bb 0249 923d f178 a6bb 9a0b 4f3a
00000030: 6fe3 f43c 9272 f8bb a189 203d 9d07 99bc
00000040: 682d 823d cb92 313c b4fb 8d3b 8d15 493d
00000050: 2a24 b4bc 4b47 aa3c d836 49ba 0dfa 85bc
00000060: c2fb 5d3d ae14 333b db7d 953c e23e d13c
00000070: 11fd f53c 4af1 fe3c c3bc 1d3d ca2f e03c
00000080: 33e6 79bd f8f7 7bbd 7cb7 a3bc 6688 34bd
00000090: 6e01 0b3d 8c0f 9a3c 71b2 83bc 5091 5a3d
000000a0: 1a3f fcbc 6b91 adbc ac48 3abb d288 4f3b
000000b0: 59dd 02bd 795e 3abd 88bb 373d ea5e eb3c
000000c0: 97f8 b8bc b1fc 363d 6ffe 00bd 3d38 673d
000000d0: db93 96bc b255 b23c a088 943d fbc7 d13a
000000e0: 6c50 a83c 2ea5 55bc 77cf 15bc 12f7 be3c
000000f0: 05be 0cbd 8b43 12bd 0268 2dbd 1a74 dcbc
00000100: 0c92 b43b 0e04 1d3b 5921 8f3b e9b8 903c
00000110: 4d22 21bd 3a71 a13b 3280 513d 586c bfbc
00000120: 0076 61bd 58b9 f0bc 4f34 df3c 5c7f a7bc
00000130: 9ca4 2d3d b602 a0bc 07d7 6b3c 9620 1c3c
00000140: ce7a 46bd e444 403c 6227 773d e0f7 0abd
00000150: 8386 693c 76a9 853b 0331 103d f589 053d
00000160: 1060 59bb 9c6f adbc e6d7 023d 515b 403d
00000170: f112 2cbd 2027 ac3c c150 c9ba 42f4 b43c
00000180: abd5 20bc ecc4 9cbc 12f3 9d3a a9f3 233d
00000190: 7ad2 bebb df01 82bd 65fd 7fbd 8b6f e8bc
000001a0: 268c e4bc a367 203d a191 1c3d c2f1 17bd
000001b0: cd4c 3f3a 051c c9bc 9e60 51bd 447c fdbc
000001c0: 8e5c 8a3c 3410 a63a 2dcb 353b 418f 45bd
000001d0: 746f 173c 4e1e 7abc 5976 99bc 466a d6bc
000001e0: cd53 18bd 0d5c 1abd dc5b 68bd 5d60 d3b9
000001f0: 1541 8dbd 7d7f 90bc 6838 913d 0537 143d
00000200: c954 a33c 120c d538 0ef6 073d b0bc 863b
00000210: 00f8 f2b9 b4b7 683d ed52 6cbd d348 b9bc
00000220: 468c 39bb 0aab 453d 8a48 7f3d 6313 7b3d
00000230: 4753 bdba e9f0 b8bb ae11 a0bc 9366 56bc
00000240: 21cf 54bc f56e e1bc bc6a 8ebd d46a 573c
00000250: 53a8 8c3a 3392 c53c 6b1a 47bd dca8 dcbc
00000260: 1c99 dbbb 2e49 2d3d 8a87 543d 4fa8 d5bc
00000270: bae6 403d 0762 e73c 2290 743c 096e af3b
00000280: 6720 653d 06c4 3bbd 2bce 21bd ffb2 223d
00000290: 1911 853c f6ec 2a3d 8421 00bb f7bf 463d
000002a0: ec6b 423d 518f 74bc 6260 aebc 9b7f e23c
000002b0: a073 5e3d 0c4a 273d f1ae 5abd 69cf 54bd
000002c0: 5656 383d a539 bc3c 0231 6bbd dfb8 be3b
000002d0: 58db 823d 553c 953d 7a7a 2d3c 22fe f9bc
000002e0: e96d 943d b187 693d 9c63 e33c 6742 873d
000002f0: 2235 5f3d 3c5d 46bd 1cd1 5fbc 7492 f43c
00000300: 4e22 da3c b97a 1bbb 2f28 70bd df55 9ebc
00000310: 7ba9 70bd af3f 82bd c8c8 0bbd 6eca 0ebd
00000320: e195 0a3d 228e 783d ee24 09bd 839c 6ebc
00000330: ab1f 153d da6d d0bc 4902 273d 898f c2bc
00000340: 1909 1ebd f627 563d 13a3 13bd 0643 493a
00000350: a5b5 823d f26b 0a3c 409c 8c3d 6c57 513c
00000360: 9c59 33bd 1939 873c eaaf 963d ed72 343d
00000370: d5cb 23bd 78ef 183d 497e dd3c 48e8 46b8
00000380: 468e 82bc 767c 1c3d 2e23 883d d07c f93b
00000390: 2aab 073d 9956 833c 9452 b03c 01ed 883d
000003a0: e759 c33c ed70 2f3d 2be1 55bd 2d19 edbc
000003b0: a451 85bd 01e4 febc 143e a9bb 2cf8 153d
000003c0: 9872 5637 2577 0cbd 9e52 67bd b0ad 193d
000003d0: c4b4 a03c f05b a63c f085 75ba bcde 1bbc
000003e0: e62b 1cbd 20a6 303d bef3 e9bc 3308 363d
000003f0: 97e8 dc3c e48b 953d fda6 89bb 1be5 813d
-0.029718492 0.010371609 -0.0066518732 -0.0037364077 -0.008023882 -0.016700769 0.06868237 0.016290471
-0.0060574934 0.071428314 -0.0050803353 0.0007898152 0.029893605 -0.007582017 0.039193753 -0.018680388
0.06356317 0.010838221 0.004332984 0.049092818 -0.0219899 0.020785948 -0.0007675714 -0.016354585
0.054195173 0.0027325558 0.01824849 0.02554268 0.030027898 0.031120915 0.038510095 0.027366538
-0.06101055 -0.06151578 -0.019984953 -0.044075392 0.03393691 0.018806241 -0.016076298 0.053361237
-0.030791808 -0.021187505 -0.0028424663 0.0031667245 -0.031949375 -0.045500252 0.044856578 0.028731782
-0.022579474 0.04467458 -0.031492647 0.056450117 -0.01838105 0.021769378 0.07252622 0.0016005033
0.02054616 -0.01303987 -0.009143702 0.023311172 -0.034360904 -0.035708945 -0.042335518 -0.02691083
0.005510574 0.0023958716 0.004367989 0.017666297 -0.039339352 0.0049268277 0.051147647 -0.023367092
-0.055044174 -0.029385254 0.027246622 -0.020446472 0.04239331 -0.019532543 0.014394528 0.0095292535
-0.04845696 0.011735175 0.060340293 -0.0339278 0.0142532615 0.004079039 0.03520299 0.03260227
-0.003316883 -0.021171384 0.031944178 0.046962086 -0.04201025 0.02101475 -0.001535915 0.022089127
-0.009816567 -0.019136868 0.001205059 0.040027294 -0.0058234306 -0.06348013 -0.062497515 -0.0283735
-0.02789886 0.039161336 0.03822482 -0.037095793 0.0007297516 -0.024549494 -0.051117532 -0.030943044
0.016889837 0.0012669624 0.002773951 -0.04823232 0.009242881 -0.015266014 -0.01873319 -0.026173722
-0.037189294 -0.037685443 -0.05672823 -0.00040316852 -0.06897179 -0.017638916 0.07090837 0.036185283
0.01993789 0.0001015888 0.03319364 0.004111849 -0.0004634261 0.056815818 -0.05769627 -0.022617733
-0.002831237 0.04825882 0.062325038 0.061297785 -0.0014444374 -0.005643953 -0.01953968 -0.013085979
-0.0129888365 -0.027518729 -0.06953952 0.013148028 0.0010731317 0.024117565 -0.04860918 -0.026935987
-0.0067016017 0.042306118 0.051887073 -0.026081232 0.047095038 0.028244985 0.014926942 0.0053536934
0.055939104 -0.04584124 -0.039503258 0.039721485 0.016243504 0.04172989 -0.0019551227 0.048522916
0.047466204 -0.014926747 -0.021286193 0.027648738 0.054309487 0.0408421 -0.053389493 -0.051955614
0.04500421 0.022976706 -0.057419784 0.005820378 0.06389493 0.07286898 0.010588283 -0.030516688
0.07247526 0.05701417 0.027757458 0.06604462 0.05449403 -0.04842876 -0.013660695 0.02985499
0.026627686 -0.0023724271 -0.058632072 -0.019328056 -0.05875538 -0.06359803 -0.034127027 -0.03486102
0.033834342 0.060682423 -0.033482485 -0.0145636825 0.036407154 -0.025443006 0.040773664 -0.023750084
-0.038582895 0.052284203 -0.03604419 0.0007677529 0.06382302 0.008448588 0.0686574 0.012777191
-0.04378663 0.016506718 0.07357772 0.044054914 -0.03998931 0.03733775 0.027037757 -4.7423207e-05
-0.015936982 0.038204633 0.06647335 0.0076137558 0.03312222 0.016032504 0.021523751 0.0668583
0.02384658 0.042832304 -0.05221669 -0.028942669 -0.06509712 -0.03111458 -0.005164871 0.03661363
1.2782075e-05 -0.034293313 -0.056475274 0.037519157 0.019617446 0.020307511 -0.00093659665 -0.009513553
-0.038127802 0.04312718 -0.028558608 0.044441413 0.026966376 0.07302073 -0.0042008148 0.063425265

6.bias f4 [16]
00000000: c9f9 a4bc 0cb0 1dbd dfb3 1eb9 93ff 54bb
00000010: abf0 53bd 16fb 00bd 773b 20bd 9366 4b3c
00000020: 388b 2d3d 2b71 ffbc ae89 c6bc 30b2 2b3d
00000030: 669f 14bd eeb7 e2bb aa61 123d 3673 79ba
-0.020138638 -0.03849797 -0.00015135061 -0.0032500967 -0.05174319 -0.031489454 -0.03911921 0.012414592
0.042369097 -0.031181892 -0.024235573 0.04191798 -0.036284827 -0.006918899 0.03573767 -0.0009515764

10.weight f4 [128, 624]
00000000: a108 47bc a40b dd3c e294 013d e180 d9bc
00000010: 5b11 0d3d 588f da3b 002a 083d fd6d f1bc
00000020: 1c10 953c a69d dc3c dd83 b7bc 9ee7 14bd
00000030: 8740 61bc a993 923b e698 ab3c 62f5 4c3b
00000040: a058 ee3c 9d6a e8bc b4ca 0b3d 9017 083d
00000050: a9e1 dcba 31f9 39bc c594 623a a2bc 003d
00000060: 7065 0fbc e830 bb3c bbdb 773c b09a c0bc
00000070: 0054 bc3c 957c 0dbd 01ce 5eba 62d0 00bd
00000080: eb72 3bbc 4fbe 9c38 e587 e23c 856f a73b
00000090: 679e a43b 0c6b aa3c 5abf 4cbc 3834 033d
000000a0: 72b2 053c ceee 0bbc 074c 0dbd 75c1 d9bb
000000b0: c721 f03c 9f09 0eba fb23 163c 02ea 0fbd
000000c0: edd4 1c3d 1aea 8cbb c7ab 783c 36a3 c83c
000000d0: 3b47 d83c 5cd7 883c 739f 513b 0ba5 07bd
000000e0: 1579 943c 5d60 a1ba 930e 0e3d b8a5 063c
000000f0: 3fdb d4bb 3c38 0e3d c88e 0839 662c a6bb
00000100: 66b9 213c 8e5b 80bc a7ef 40bc aa37 b53c
00000110: 520c 8bbb 9cbc e9bc d195 633b b643 18bd
00000120: d705 98bb 4e0e c63c c6b7 363b 66b8 ecbc
00000130: fa8e f0bb 0eef 943c 6ee1 eabc 7b89 073d
00000140: e02b d73b 83bb 0bbd b87d 273c 0845 0abd
00000150: ec71 15bd 9b4f 0b3c cb2f 8a3c 8f67 a33b
00000160: a83c c9bc c544 ea3c a44f 973c 5061 28bd
00000170: 7a84 de3c b266 bb3b d900 8f3c deb5 4c3b
00000180: 3987 febb a0a2 0abc d09c de3c dca9 04bd
00000190: b518 993c 0ac1 f43c 7311 28bd 49ca 183c
000001a0: a884 b2bc 0d66 c43c 4999 1cbd 83f9 b33a
000001b0: 5d8d 95bc 01aa 1e3c 43de a8bc 6cd6 93bc
000001c0: f969 19bc a95e 0e3d fa00 00bc 66f3 b23c
000001d0: 8aeb 0f3d 488f 13bd ae4e 8ebc 3940 ef3b
000001e0: a004 1c3d cecd 5bbc 3409 3ebb e752 6d3b
000001f0: 52d2 153d 6324 debc d14c c7bc 1212 18bd
00000200: 691f 973c 0f40 e9bb 1616 153b f499 a83c
00000210: 604f 50bb 287a 35bc 1f91 ce3c 1957 bfba
00000220: 3f87 15bd d44a 073c eda0 b8bc 3ef0 7a3c
00000230: e50f 21bd cf14 1c3d 9d78 a93b cf9b 133d
00000240: f15f 8abc 3c21 e73c 0e37 ebbc d5d1 92bc
00000250: 9a33 943c 5396 e53c cb9a 70bc fa75 21bc
00000260: 65dc 8d3c 62be fbbc 23c2 ad3b 3d30 80bc
00000270: 9f80 b93c 7b95 f238 3618 0e3d 11bb ed3c
00000280: 0222 0c3d 1096 4e3c 3b5a f5bc 5682 b93a
00000290: 5592 c73b 8bd1 00bd 7bf8 933b 009d 91bc
000002a0: ae32 24bd b315 eebc 48f1 b9bc 1a17 513c
000002b0: d7da 603c 4834 b6ba de17 2ebb 1cd4 babb
000002c0: 3a7c 113d 884b 62bc 4e48 6d3c d8df de3c
000002d0: cbae 9cbb 46e1 063d 6948 b13c 4e9e c3bc
000002e0: 3718 71bc 63f0 dfbc 0e9f 793c 3f66 c0bc
000002f0: 5202 02bd 3b07 ec3c 42fb ccbc b6c5 cdbc
00000300: b0b5 bbbc abb3 bc3c 68c2 17bd d46b 14bd
00000310: 1e5b 08bd c1a1 473c b699 04bd 813c 813b
00000320: f044 e13c 3446 fbbb 2be5 0dbd 37e7 2a3b
00000330: 3601 e83c 9211 f3bc a34e 0e3b d741 27bc
00000340: 64d4 04bd 75c3 4aba bf66 533b 32f3 57bc
00000350: 664f 26bd 8e57 033c 5f02 e43c a2eb 1abd
00000360: c09c 07bb b514 a8bc 166d 0d3d 16a4 0f3d
00000370: d11c 0a3d 9c9f c4bc ed52 8c3c 780e 18bd
00000380: f421 b1bc a8c0 20bd 3704 50bc 38ef 593c
00000390: 5164 0a3d 973c b13c 862e 063d 137f 25bd
000003a0: ddc6 0b3d d1e5 e2bc 0990 093d b318 27bd
000003b0: 3de5 b93c e61b 733c 5830 983c 1dd5 303c
000003c0: ff5d b33c be8c 00bd 12a5 033d 5e7e 30bc
000003d0: 2991 6c3b 5025 c7bb 568f 9abc a982 debc
000003e0: a0f6 423c eeef c03c 1932 2abd 4e22 9b3c
000003f0: 98a6 49bc b322 17bd 1fa4 123d 5d1f ea3c
-0.012148053 0.02698309 0.031636126 -0.026550712 0.03444038 0.00666992 0.03324318 -0.029471392
0.018196158 0.026930641 -0.022401744 -0.0363537 -0.013748295 0.004473169 0.020946931 0.003127419
0.029094994 -0.02837115 0.03412886 0.033225596 -0.001685192 -0.011350916 0.0008643384 0.031429894
-0.008752212 0.022850469 0.015128071 -0.02351126 0.022989273 -0.03454264 -0.0008499325 -0.03144873
-0.011440973 7.4741074e-05 0.02765269 0.0051097297 0.005023766 0.020802997 -0.012496794 0.03203222
0.00816022 -0.008540822 -0.034496333 -0.0066453763 0.029312981 -0.0005418304 0.009163852 -0.035135277
0.038289 -0.004300368 0.015177674 0.024491888 0.026401153 0.016704254 0.0031985908 -0.03311638
0.018124143 -0.0012312044 0.034681868 0.008218221 -0.0064958627 0.034721598 0.00013023161 -0.0050712107
0.009870863 -0.015668657 -0.011775888 0.02212127 -0.004243412 -0.028532319 0.0034726749 -0.03717395
-0.004639368 0.024176743 0.0027880534 -0.028896522 -0.007341263 0.018180396 -0.028671946 0.033090096
0.0065665096 -0.034114372 0.010222845 -0.03375724 -0.036485597 0.008502866 0.016868493 0.0049867104
-0.024565056 0.028597245 0.018470593 -0.04110843 0.02716278 0.0057190293 0.017456459 0.003123633
-0.0077675846 -0.008461624 0.027174383 -0.032388553 0.018688539 0.029877204 -0.041032266 0.009325572
-0.021791771 0.023974443 -0.03823212 0.0013730976 -0.018255884 0.009684087 -0.020613795 -0.01804658
-0.009363645 0.034758244 -0.007812733 0.021844577 0.035136737 -0.036025316 -0.017371502 0.007301357
0.03809035 -0.013415767 -0.0028997185 0.0036212744 0.03657753 -0.02711696 -0.024328621 -0.03712661
0.018447595 -0.007118232 0.002274876 0.020581223 -0.0031785592 -0.011076488 0.025215684 -0.0014598101
-0.036505934 0.0082575865 -0.022537673 0.015316067 -0.0393218 0.038105782 0.005171849 0.036037263
-0.016891452 0.02821409 -0.028712776 -0.017922321 0.018091012 0.028025782 -0.014685343 -0.009854788
0.017317006 -0.03073043 0.005302684 -0.015648002 0.02264434 0.00011567302 0.034691058 0.029019864
0.03421212 0.01260902 -0.029950252 0.0014153223 0.006090442 -0.031449836 0.004515705 -0.017775059
-0.040087394 -0.029063081 -0.02269806 0.0127618555 0.0137240505 -0.0013901079 -0.002656452 -0.005701555
0.035518862 -0.013811953 0.014482571 0.027206346 -0.004781579 0.03292968 0.021640973 -0.023879196
-0.014715246 -0.027336305 0.0152356755 -0.023486255 -0.031740494 0.028812042 -0.025022153 -0.02511869
-0.022913784 0.023034891 -0.037050635 -0.036235645 -0.03329002 0.012184561 -0.032373153 0.00394398
0.027498692 -0.007668281 -0.03464238 0.0026077756 0.02832089 -0.029671464 0.0021714352 -0.010208569
-0.032429114 -0.0007734814 0.0032257286 -0.013180541 -0.040603064 0.00801648 0.027833162 -0.037822373
-0.0020692796 -0.020517686 0.03452786 0.035068594 0.033718888 -0.024001889 0.017129386 -0.037123173
-0.021622635 -0.03924623 -0.012696317 0.013301663 0.033787075 0.021635337 0.032759212 -0.04040439
0.034125198 -0.027697476 0.03358463 -0.04079504 0.022692317 0.0148381945 0.01857774 0.010792998
0.021895407 -0.031384222 0.032139845 -0.010772316 0.0036097264 -0.006077446 -0.018867176 -0.027161913
0.01189962 0.023551907 -0.041551683 0.018937256 -0.012307785 -0.036898326 0.03580105 0.028579408

10.bias f4 [128]
00000000: 6df8 18bd 9921 72bc 4956 b63c 6d43 f73c
00000010: abf9 8b3c 1e49 fd3c fe40 193d 06b0 ad3c
00000020: f6ec 15bd 3d43 923c 438e 12bd b766 2f3c
00000030: 2ba9 c93a 010c 9abc 50d3 8a3c 0ef9 1b3d
00000040: 1b53 e23c f59b c23a 39b6 c43c bf9c 753c
00000050: c043 883c 666f edbc 62b5 993c 3c4f edbc
00000060: c424 5ebc 555b cd3b d53a 19bc 577c 6e3c
00000070: 6813 1a3c 3ed0 06bd 38cf 023c 46d6 62bc
00000080: 121e 2cbc ec09 8a3c d00b 573b 9d36 40bc
00000090: ccf8 833c ab8f 11bd e099 823c e9c3 a9bc
000000a0: 19d6 1d3b db7c 8dbc 9760 4ebc cfef a3bb
000000b0: 8e2e 1abc 0a6a c1bc 7cbe 1abc 1d9f 3cba
000000c0: 33c5 0cbc 2d31 92bc 4ea1 b23c 9ec6 3cbc
000000d0: 5cf4 9abc 57f3 e43c d68c e9bc 7eeb 883c
000000e0: 5fb7 8bbc 286c aa3c 4c3d 1d3c beb5 9d3c
000000f0: 7fe4 67bc fc38 053d 0294 65bc 5053 ce3b
00000100: 4a54 debc 7f2b dbbc f667 113c be2b b23c
00000110: 9c4e 11bc c4c7 243a 1c13 f13c c261 ecbc
00000120: 579a c03a e76b 263d 4005 15bc 20c4 90bc
00000130: 3af1 93bb 46d7 1fbd 2056 6dbc 0a4c 8ebb
00000140: 58b0 263d 95e1 453c b6b6 b6b9 e7c5 1dbc
00000150: d68a 46bc 00b3 923c 7849 533b 97c9 1bbc
00000160: 6515 b9bb d3a5 e7bc c20d dcbc ad07 0ebd
00000170: 717e 1ebd 0c30 eabc d1a5 ad3a d7d7 11bd
00000180: 4ff7 aa3b 02bf 94bc c364 a9bc 4579 1f3d
00000190: 755f f63c cfcb 21bd 9a82 d1bc 93a3 983c
000001a0: 15ba 913c 1aec 233d 1b6b 04bd 92ba d0bc
000001b0: f746 823c ee79 2f3c 6ce1 343d 9090 253c
000001c0: 47e0 553c c670 143d 2197 dbbc 06fc 27bd
000001d0: c4c7 0a3d be18 f8bc 5498 d93c 2dcf e4bc
000001e0: b0e8 b4b8 7d1a a9bc d707 2a3d 8903 ae3c
000001f0: 47e4 c2bc 5956 3d3c ac21 81bc 7fdd cbbc
-0.037346292 -0.014778518 0.02225794 0.030183518 0.017086824 0.030918654 0.037415497 0.021202099
-0.036602937 0.017854327 -0.035780203 0.0107056415 0.0015385499 -0.018804552 0.016946465 0.038079314
0.027627518 0.0014847504 0.024012672 0.014990984 0.016633868 -0.028983783 0.018763248 -0.028968446
-0.01355857 0.006266991 -0.009352406 0.014556012 0.009404041 -0.03291344 0.007983975 -0.013845032
-0.010505216 0.016850434 0.0032813437 -0.011731771 0.016109847 -0.035537403 0.015942514 -0.0207233
0.002408391 -0.01727145 -0.012596271 -0.0050029526 -0.009410514 -0.023610134 -0.009444829 -0.00071953406
-0.008591938 -0.017845714 0.021805432 -0.011521963 -0.018915348 0.027948065 -0.028509539 0.016713854
-0.017055212 0.020803526 0.009597134 0.0192517 -0.014153599 0.032525048 -0.014012339 0.0062965527
-0.027139802 -0.026754139 0.008874884 0.021749374 -0.00886884 0.0006285871 0.029428057 -0.028855208
0.0014694434 0.040630247 -0.00909549 -0.017671645 -0.0045148404 -0.03902366 -0.014485866 -0.0043425607
0.04069552 0.012077709 -0.00034849875 -0.009629703 -0.012118062 0.01790762 0.0032239836 -0.009508512
-0.0056483024 -0.028277313 -0.026862029 -0.03467529 -0.038694803 -0.028587364 0.001324827 -0.03560623
0.0052174698 -0.018157486 -0.02067793 0.03893401 0.030074814 -0.039501008 -0.025574971 0.018632686
0.017788926 0.040020086 -0.032328706 -0.025479589 0.01590298 0.010710223 0.04416029 0.010105267
0.01305396 0.03624036 -0.026805462 -0.041011833 0.033881918 -0.030285235 0.026561894 -0.02793082
-8.62641e-05 -0.020642513 0.041511383 0.02124192 -0.023790492 0.011556231 -0.015763126 -0.024885891

12.weight f4 [3, 128]
00000000: 2696 18bc 7fa6 87bd 32e5 58bd 1858 41b9
00000010: 0acc 723c d066 c93c 787a f33c 71e7 ad3c
00000020: 4fa0 03bc 1738 c43c 7145 6b3d fed8 873d
00000030: 3c5b b83d 8fcb 29bd 021c c2bc dd43 12bd
00000040: fc7f 633d c618 4bbc 5e64 783d 338e 3a3d
00000050: 2e79 a83d 84ec 3f3d 7574 23bc 87c8 d0bc
00000060: bb64 debc d819 2fba 81e9 5fbd 16ce 273d
00000070: db62 ab3d a514 2ebd 96d2 6fbd f29a 37bd
00000080: 1114 a7bd 2a28 133d 3270 a4bc a90f d6bd
00000090: d5e4 b1bd 7b30 d33c 4afc 8c3d be9b 133d
000000a0: f1d8 8bbd fd64 b1bc 5f33 c7bd 3af6 b7bd
000000b0: 2eed b5bd 30eb d33c 7528 0b3d 4550 843d
000000c0: 9c39 823c bf1b a6bd 98f0 35bc 2040 a03d
000000d0: 0b6b b9bd c00d ec3b cd7b 2e3c d2e8 2d3d
000000e0: f50d 02bd d967 6f3d d5de 2bbc ca86 423d
000000f0: 16f7 423c 55b4 c8bd 1be1 3e3c 513c d1bd
00000100: 2ad9 dc3c be72 92bd 0a37 36bd 18b3 c33d
00000110: 4d55 473d cbdc f3bb b5e0 8cbd f5d2 b43b
00000120: a6fa e73c f679 2abd e38c c2bb 46a8 19bc
00000130: e02a b33d ecee 9ebb d452 663d bd4f 0cbd
00000140: 3e6f d13d d48d b7bd 3453 a8bd 18f1 7ebd
00000150: dc7c 72bc 44e9 8d3d 60bd efbc acd9 82bd
00000160: b403 8f3d 23c2 c73d ea61 c5bd 5899 653d
00000170: cdd7 18bd 0498 ae3d 7981 9fbd 3955 6f3d
00000180: a2bf 833d 37a2 2dbc 3c52 59bd 9505 82bd
00000190: 2b12 80bd 1d0e b33d a7a7 bd3c 256a 803d
000001a0: 9825 3bbd 4065 c9bc b729 adbd 6742 9f3d
000001b0: 4f43 563b c59f f73b cca3 a33d e1ee afbd
000001c0: 3879 7a3d f1df b33b 5a3a 5e3d c6bf f53c
000001d0: c4ec 1cbd 8d78 a3bd cfc8 7cbc a7a5 ccbc
000001e0: 0cff c53d 32b6 7bbd 6aca bc3c 1f47 6f3d
000001f0: b8de 633d 5e79 863d 4436 99bd e21d 403d
00000200: 6892 113d 8463 23bd d445 c93d f798 1a3d
00000210: e7d6 b5bd fdc1 e23c ace4 50bd 4180 583d
00000220: 91d2 733c 5d98 cc3d 3296 a43d 0f99 ae3c
00000230: 029b 293d 98e0 8c3d 3656 d2bc c337 983d
00000240: 8ff2 9a3d 2fe8 863b c2ae 5ebd 4d67 96bd
00000250: b7b8 0bbd d9a4 983d 49e6 70bd 10d4 41bd
00000260: 8ce4 6fbd 1935 1e3c 9cfc 8f3d b551 5cbc
00000270: d946 613d 7661 773c c7c1 92bd 7bc5 03bd
00000280: 9c86 983d 12ba 98bd a0a3 fdbc e0a4 843d
00000290: 09f1 80bd 8956 a33d 8caa 823c 1271 393d
000002a0: 76b9 9d3d 74ec 553d fa82 0f3d 097c c93d
000002b0: 0d07 a63c f57b b0bd 85c0 4a3d 96e9 0a3d
000002c0: 8ff1 9cbd fdcc 9b3d 01a7 8f3d 6873 bc3c
000002d0: b9a6 5ebc 0580 373d 9c19 ae3d 09b7 973c
000002e0: af5b 8e3c 80aa 433d 661d 4c3d c6e3 09bd
000002f0: 4bfe 623d 1542 6ebc 800a 9a3d 244b 9bbd
00000300: e333 023d a12f 963d 7b50 ca3d d9e2 a33d
00000310: 9e5a c4bd 6762 993d 022d 2d3d 4bf9 353d
00000320: 0a64 5e3c d23f 473d a674 a03c 7e3a 0ebd
00000330: 0cd8 9ebd c686 ae3d ca7d 50bd dbd2 843d
00000340: 43f9 4bbd 2372 8d3d cb89 a93d f90b 00bd
00000350: ad4b 5a3d 99ce 2bbd dcfe b03d 1da0 3abd
00000360: 57e8 c23b ce20 063d be95 8a3d 811d ef3c
00000370: e2b9 ab3d 7f74 903d b53e 80bd cdd1 b43d
00000380: 6831 49bd 3eae a73d 83ff afbc 741d 8e3d
00000390: fef2 343d 9d46 adbd 65ed 123d 0507 35bd
000003a0: 7826 ec3c 7ef1 9e3d 21d2 89bd bf44 203d
000003b0: 8bb2 a93d 0434 70bd ac97 153d f7c3 3abd
000003c0: 114d 87bd 655e c33d d8c6 2ebd 51e7 64ba
000003d0: e916 873c 0559 943d 7b57 07b8 c934 25bd
000003e0: 98bd be3c 4cc7 983c 5a2c 9c3d 2256 b9bd
000003f0: 814a 543d 85b1 32bc fc70 d5bc d9f6 35bd
-0.009313142 -0.066235535 -0.052952953 -0.00018438732 0.0148191545 0.024585158 0.029721484 0.021228524
-0.008033826 0.023952527 0.05743927 0.06633185 0.090017766 -0.041453894 -0.023694996 -0.03570925
0.055541977 -0.012396043 0.060642593 0.045545768 0.08226238 0.04685642 -0.009976496 -0.025486244
-0.027147641 -0.0006679571 -0.054666046 0.040968023 0.083684646 -0.042500157 -0.05855044 -0.0448255
-0.08158124 0.035926975 -0.02007303 -0.10452206 -0.08686224 0.025779953 0.06884058 0.0360372
-0.06828488 -0.0216546 -0.09726595 -0.08982511 -0.08883129 0.025868982 0.03397413 0.06460623
0.01589661 -0.08110761 -0.011104725 0.07824731 -0.0905362 0.0072037876 0.010649634 0.042458363
-0.03175159 0.058448646 -0.010490139 0.047491826 0.01189973 -0.098000206 0.011650349 -0.102165826
0.02695902 -0.071507916 -0.044486083 0.09555644 0.048665334 -0.007442092 -0.06878797 0.005518312
0.02831776 -0.041620217 -0.005937205 -0.009378498 0.08748412 -0.004850259 0.056231335 -0.03425573
0.10226296 -0.089625984 -0.08218995 -0.062241644 -0.014800277 0.069292575 -0.029265106 -0.06389174
0.06983128 0.097538255 -0.09637816 0.056054443 -0.03731518 0.085250884 -0.07788367 0.058430884
0.064330354 -0.010597757 -0.05305694 -0.06348721 -0.06253465 0.08742926 0.023151232 0.062702455
-0.04569015 -0.024584413 -0.08455222 0.07776337 0.0032693928 0.007556888 0.07990226 -0.085904844
0.06115076 0.0054893424 0.054254867 0.029998671 -0.038311735 -0.079819776 -0.015428736 -0.024981333
0.09667787 -0.061453052 0.023045737 0.058417436 0.055632323 0.06566118 -0.074810535 0.0469035
0.035540015 -0.039889827 0.09827772 0.037743535 -0.0887888 0.027680391 -0.05099933 0.052856687
0.014881746 0.099899985 0.0803646 0.021313218 0.041407593 0.06878775 -0.025675874 0.07432511
0.07565796 0.004117034 -0.05436588 -0.07343922 -0.034111705 0.07453317 -0.058813367 -0.04732138
-0.05856757 0.009656214 0.07030603 -0.013447215 0.054999206 0.01509892 -0.07165866 -0.032170754
0.0744755 -0.07457365 -0.030961812 0.0647676 -0.06295974 0.0797549 0.015950464 0.045273848
0.077013895 0.052227452 0.03503702 0.09838111 0.020267034 -0.08617393 0.049500007 0.03391417
-0.07663261 0.07607458 0.07014275 0.023004249 -0.0135895545 0.044799823 0.08500978 0.018519895
0.017377703 0.047770023 0.049832724 -0.033664487 0.055418294 -0.014542122 0.07521534 -0.07582691
0.031787764 0.07333303 0.09878632 0.08002252 -0.09587596 0.07489472 0.04227925 0.044427197
0.013573656 0.04864485 0.019586872 -0.03472375 -0.077560514 0.085218 -0.05090121 0.0648553
-0.04979826 0.069065355 0.08278235 -0.031261418 0.053294826 -0.041945074 0.086423606 -0.045562852
0.005948107 0.03274613 0.06766842 0.029188873 0.08385064 0.0705347 -0.062619604 0.08829079
-0.049119383 0.08187531 -0.021484142 0.069392115 0.044177048 -0.08460734 0.03587093 -0.044196147
0.028826937 0.07760905 -0.06729532 0.03912806 0.082860075 -0.058643356 0.0365216 -0.045597043
-0.06606496 0.09539489 -0.0426701 -0.00087319786 0.016490417 0.07243542 -3.226798e-05 -0.040333543
0.023283765 0.01864972 0.07625647 -0.09049632 0.051828865 -0.010906582 -0.026054852 -0.044424865

12.bias f4 [3]
00000000: affa 5e3d 84ac 27bd b186 f2bb
0.05443829 -0.040936008 -0.0074013104
